…
/usr/local/lib/python3.5/dist-packages/h5py/__init__.py:34: FutureWarning: Conversion of the second argument of issubdtype from `float` to `np.floating` is deprecated. In future, it will be treated as `np.float64 == np.dtype(float).type`.
  from ._conv import register_converters as _register_converters
Using TensorFlow backend.
Number of images in the dataset: 195923
Number of images in the dataset: 37167
_________________________________________________________________
Layer (type)                 Output Shape              Param #   
=================================================================
conv2d_1 (Conv2D)            (None, 64, 64, 20)        1520      
_________________________________________________________________
activation_1 (Activation)    (None, 64, 64, 20)        0         
_________________________________________________________________
max_pooling2d_1 (MaxPooling2 (None, 32, 32, 20)        0         
_________________________________________________________________
conv2d_2 (Conv2D)            (None, 32, 32, 50)        25050     
_________________________________________________________________
activation_2 (Activation)    (None, 32, 32, 50)        0         
_________________________________________________________________
max_pooling2d_2 (MaxPooling2 (None, 16, 16, 50)        0         
_________________________________________________________________
flatten_1 (Flatten)          (None, 12800)             0         
_________________________________________________________________
dense_1 (Dense)              (None, 500)               6400500   
_________________________________________________________________
activation_3 (Activation)    (None, 500)               0         
_________________________________________________________________
dense_2 (Dense)              (None, 2)                 1002      
_________________________________________________________________
activation_4 (Activation)    (None, 2)                 0         
=================================================================
Total params: 6,428,072
Trainable params: 6,428,072
Non-trainable params: 0
_________________________________________________________________
WARNING:tensorflow:Variable *= will be deprecated. Use variable.assign_mul if you want assignment to the variable value or 'x = x * y' if you want a new python Tensor object.
Epoch 1/100
…
